round_1/algos/Laksh/lstm_model.pth (torch, 20137 bytes, 5 tensors)

lstm.weight_ih_l0 f4 [128, 1]
-0.85795057 2.0781548 1.080231 -0.9313866 0.8975168 0.0029545457 0.5423803 0.2241847
0.6038007 0.55222446 -0.06458498 -1.2126025 0.7330738 -0.839485 0.58738583 -0.9146634
-0.40468386 -1.0491438 -0.0041567083 -0.6055165 -1.2293352 1.1425854 0.40818125 -0.8213951
0.32129946 0.086875275 -0.22714065 -0.29571316 -0.66919744 -0.12078433 0.8161322 -0.2188454
-0.948104 0.21261674 0.7156722 -0.38335904 -0.91987926 1.8101823 -1.1524223 -0.69687504
-1.6087818 -1.4851986 0.02529096 -0.17893681 -0.57330686 0.8806404 -0.6992423 1.0176078
-1.6733235 0.06442739 -1.9070747 1.1254959 -1.0423388 1.2438394 0.49473357 1.3773223
-0.29743657 -1.4239731 0.31720817 -1.5442599 -0.6840403 1.8720174 -1.6397641 0.102675356
0.9092901 2.736606 1.9523373 1.6632125 0.66214234 1.458723 1.158787 -1.195637
0.25817147 -0.9255007 -1.6358552 -0.06774311 -1.3828543 1.6876888 -1.4067926 -1.7565506
-1.8697637 -3.1327279 2.7820024 -1.6042149 -0.8526172 -2.428482 1.0288866 -0.80365956
0.7659287 1.9687845 1.2638955 1.6552656 -1.1898878 -1.3688835 1.783678 -1.7259053
0.45094675 1.245526 -0.97768694 -2.1571827 -0.28330094 0.60465777 0.8393213 1.204092
-0.4996475 1.2100047 1.0653722 0.18347397 1.2668878 -0.09770464 1.5320098 -0.08894739
-0.020030376 -2.1116717 2.0374615 -1.0435975 -0.5891618 -0.073936515 1.6384869 -0.40633056
0.8056371 -0.5076458 0.8299809 -0.9240319 0.47659895 -0.77465653 -0.9549969 0.101397865
00000000: a6a2 5bbf 7d00 0540 0245 8a3f 5a6f 6ebf
00000010: a9c3 653f 0da1 413b 6fd9 0a3f ad90 653e
00000020: af92 1a3f 955e 0d3f 2145 84bd 8f36 9bbf
00000030: b9aa 3b3f 7de8 56bf eb5e 163f 6127 6abf
00000040: b932 cfbe 584a 86bf ff34 88bb 2103 1bbf
00000050: db5a 9dbf 3d40 923f 22fd d03e f346 52bf
00000060: 5d81 a43e aaeb b13d 8f97 68be b767 97be
00000070: 8650 2bbf c65d f7bd 0aee 503f 0219 60be
00000080: f2b6 72bf 34b8 593e 4b36 373f a347 c4be
00000090: 357d 6bbf 0eb4 e73f 9382 93bf 6766 32bf
000000a0: 90ec cdbf fd1a bebf fd2e cf3c 363b 37be
000000b0: 3dc4 12bf a671 613f 8b01 33bf f940 823f
000000c0: 772f d6bf 82f2 833d 061b f4bf 4010 903f
000000d0: 5c6b 85bf 2136 9f3f b84d fd3e 194c b03f
000000e0: 9b49 98be c044 b6bf 1c69 a23e 4faa c5bf
000000f0: 441d 2fbf 449e ef3f cae3 d1bf 7547 d23d
00000100: 3cc7 683f 8d24 2f40 30e6 f93f 26e4 d43f
00000110: 2982 293f 6fb7 ba3f 2253 943f a20a 99bf
00000120: 0d2f 843e 9ded 6cbf b463 d1bf e6bc 8abd
00000130: 5f01 b1bf 3006 d83f c811 b4bf a6d6 e0bf
00000140: 6b54 efbf 9d7e 48c0 540c 3240 ea56 cdbf
00000150: 1f45 5abf 406c 1bc0 8eb2 833f a2bc 4dbf
00000160: e713 443f 2101 fc3f 54c7 a13f bedf d33f
00000170: 3e4e 98bf 9337 afbf 904f e43f 77ea dcbf
00000180: 7ee2 e63e 656d 9f3f b149 7abf 480f 0ac0
00000190: d20c 91be daca 1a3f c3dd 563f b01f 9a3f
000001a0: ccd1 ffbe 6fe1 9a3f 1e5e 883f 9ae0 3b3e
000001b0: 6129 a23f 5f19 c8bd e618 c43f 0d2a b6bd
000001c0: be16 a4bc a125 07c0 c565 0240 9a94 85bf
000001d0: 4fd3 16bf 076c 97bd f0b9 d13f 8f0a d0be
000001e0: 3c3e 4e3f 13f5 01bf a179 543f 5b8d 6cbf
000001f0: c704 f43e e44f 46bf ad7a 74bf afa9 cf3d

lstm.weight_hh_l0 f4 [128, 32]
0.87139106 -0.2790029 0.47503546 -0.7009147 -1.2658191 0.79298264 -1.045593 -0.32210815
0.7349102 2.9634113 -1.1295972 -1.3270633 1.5758715 -2.8766613 1.959463 -2.0798297
1.1107923 1.0848522 0.20769411 0.8174071 -0.6377901 0.57792413 -0.23521677 1.1647594
-2.5606375 -3.959567 -1.0018917 0.16974495 -1.3174367 -0.9330233 -1.2317402 -1.2511774
0.10363701 1.0319875 0.31719235 -0.16451527 1.676485 -1.3473704 0.6643429 -1.680016
1.440584 0.24901195 -2.0135977 0.14073853 1.2564437 -0.7586155 -1.582468 -0.66434044
-1.3977952 -0.42066264 -0.121872224 0.20672557 -0.6990172 -1.0584897 0.43522456 2.5455828
-1.0716066 0.4976326 1.5667537 -0.36870039 1.0641332 -0.18973725 -0.07425857 -1.2281747
-0.4203866 0.4596572 0.6628283 -1.6063064 -1.2736385 -0.5594507 1.9113841 0.32881933
0.685641 0.017649101 -0.6238286 0.9961226 1.4136316 -0.813531 0.3816581 0.2248948
0.9109785 2.1676753 -1.384806 0.84377795 0.3674821 0.09235136 -1.024305 1.8777108
-0.93005806 0.6243629 -1.1820217 1.1972611 0.63540626 -0.38492602 -1.1554192 0.38433146
1.3641539 0.97932595 -0.5401808 -1.850335 -0.12922877 -0.18104717 -0.4541457 0.91401094
0.54840344 -0.3343793 0.5592104 0.057585146 0.28418657 -0.52843404 0.23555408 0.23520501
-0.8107143 0.9069894 0.1608397 1.3518353 -0.8312212 -0.24319394 -0.045776848 0.012490292
-0.956167 1.4427018 -1.6261177 -0.83285 -2.3994954 0.6748896 0.4311257 -1.5352949
1.0923977 -0.02895791 -2.0017042 -0.9986099 0.6360919 -0.21180145 -1.4955735 1.1779336
-0.737374 1.4913565 0.25156903 -0.103200905 1.4197124 -2.4945972 1.9157022 -1.070186
0.44814107 0.13334353 -0.015505369 -0.5096632 -2.4508646 -0.8209446 1.1988971 0.80949634
0.49006587 1.5922443 -1.0513561 -0.44510835 1.0207967 0.7151536 -0.35171396 0.8641261
0.2573896 1.4855137 -0.6769415 -0.7077643 -0.74268746 0.44150165 -0.7099551 -0.7096295
-0.019610398 0.68421894 0.3889281 0.15514646 0.077556215 -0.318353 0.3500825 -1.3535409
1.2996526 1.6962496 1.059164 0.008884297 1.4471503 1.1726867 -0.036137447 0.30497706
-0.043328155 0.79428154 0.78429836 0.81238383 0.04560887 -0.6445066 -2.6424332 -0.55257565
-0.41283214 0.044907514 -0.058645904 -0.21352626 -0.47026956 -2.1285205 -1.5650649 -0.04279852
1.9854938 0.16091524 1.5985237 -0.47596297 0.91796345 -0.5265676 1.9649167 1.1435235
0.22428815 2.860459 1.4973383 2.735445 0.86324084 -1.1624454 -1.243235 -0.81156427
-0.31274864 0.40236577 -2.1706843 -0.6575954 1.9651177 0.09663079 -0.2772097 0.32445857
0.6584867 -0.2391458 -1.1874408 0.022719488 -0.0066170073 -1.1792613 0.14295754 -1.1841128
-0.09979946 2.9471555 -1.3692533 -0.9541436 1.6848912 -0.32422233 2.2465386 -1.1786458
1.3106805 -0.67343307 -0.7720957 -0.52330685 -0.42816558 0.35320866 -0.5646904 -1.1747336
-0.87234235 0.33012706 -1.8526206 0.5527161 1.340121 -1.6905897 0.4724318 -0.06818096
00000000: 7c13 5f3f 78d9 8ebe d937 f33e 256f 33bf
00000010: 5c06 a2bf e900 4b3f fed5 85bf 5ceb a4be
00000020: 1323 3c3f 88a8 3d40 a496 90bf 36dd a9bf
00000030: 28b6 c93f 381b 38c0 afcf fa3f ee1b 05c0
00000040: 712e 8e3f 70dc 8a3f c4ad 543e 9741 513f
00000050: 3646 23bf d6f2 133f aadc 70be d616 953f
00000060: 7ce1 23c0 8c69 7dc0 fd3d 80bf 9fd1 2d3e
00000070: c4a1 a8bf 9dda 6ebf aaa9 9dbf 9526 a0bf
00000080: a43f d43d 2b18 843f 0967 a23e b176 28be
00000090: 0f97 d63f a276 acbf 6012 2a3f c40a d7bf
000000a0: 0e65 b83f fdfc 7e3e c9de 00c0 c31d 103e
000000b0: 26d3 a03f a034 42bf 508e cabf 3712 2abf
000000c0: f4ea b2bf 1861 d7be 2598 f9bd deaf 533e
000000d0: cbf2 32bf 977c 87bf c1d5 de3e d4ea 2240
000000e0: 682a 89bf b3c9 fe3e 638b c83f 4cc6 bcbe
000000f0: 8435 883f 7b4a 42be e114 98bd d434 9dbf
00000100: ea3c d7be 3058 eb3e 1eaf 293f 739b cdbf
00000110: 9606 a3bf 2938 0fbf 3ca8 f43f 025b a83e
00000120: 2b86 2f3f d994 903c 3bb3 1fbf e401 7f3f
00000130: e1f1 b43f 9143 50bf b168 c33e d34a 663e
00000140: e335 693f 31bb 0a40 5341 b1bf d501 583f
00000150: 9d26 bc3e b622 bd3d 6d1c 83bf d458 f03f
00000160: 4918 6ebf 3fd6 1f3f 7d4c 97bf da3f 993f
00000170: fca9 223f 0615 c5be c7e4 93bf 18c7 c43e
00000180: 989c ae3f 1bb5 7a3f 4a49 0abf c7d7 ecbf
00000190: 8c54 04be 6e64 39be c985 e8be 9ffc 693f
000001a0: 2b64 0c3f c333 abbe 6a28 0f3f 67de 6b3d
000001b0: e780 913e 7447 07bf 1735 713e 95d9 703e
000001c0: f98a 4fbf 7530 683f 2ab3 243e f008 ad3f
000001d0: eaca 54bf d507 79be 8180 3bbd 15a4 4c3c
000001e0: 5cc7 74bf 74aa b83f a024 d0bf a835 55bf
000001f0: 5591 19c0 91c5 2c3f 82bc dc3e 8b84 c4bf
00000200: b0d3 8b3f 2439 edbc ec1b 00c0 e6a4 7fbf
00000210: ebd6 223f 7be2 58be f46e bfbf 87c6 963f
00000220: 8bc4 3cbf c5e4 be3f a8cd 803e ff5a d3bd
00000230: 23b9 b53f 7ba7 1fc0 bb35 f53f dbfb 88bf
00000240: bf72 e53e 358b 083e 3b0a 7ebc 4a79 02bf
00000250: f7da 1cc0 6d29 52bf 7675 993f 273b 4f3f
00000260: eae9 fa3e a9ce cb3f d692 86bf 3ee5 e3be
00000270: 77a9 823f 4e14 373f da13 b4be 5e37 5d3f
00000280: 92c8 833e 5025 be3f 0a4c 2dbf 0b30 35bf
00000290: c420 3ebf 810c e23e 9ebf 35bf 47aa 35bf
000002a0: fca5 a0bc f928 2f3f 9521 c73e b7de 1e3e
000002b0: cbd5 9e3d 2aff a2be 033e b33e d440 adbf
000002c0: 045b a63f b51e d93f b092 873f 718f 113c
000002d0: 393c b93f 991a 963f dc04 14bd f425 9c3e
000002e0: dd78 31bd 0956 4b3f c7c7 483f 63f8 4f3f
000002f0: 5ed0 3a3d 62fe 24bf a01d 29c0 9975 0dbf
00000300: bc5e d3be f1f0 373d b036 70bd a1a6 5abe
00000310: 2cc7 f0be ae39 08c0 0c54 c8bf 804d 2fbd
00000320: a924 fe3f f7c6 243e 6d9c cc3f 6bb1 f3be
00000330: a7ff 6a3f 22cd 06bf 6482 fb3f fa5e 923f
00000340: cbab 653e c311 3740 c8a8 bf3f 8811 2f40
00000350: 5afd 5c3f 03cb 94bf 5322 9fbf adc2 4fbf
00000360: 9720 a0be e302 ce3e 7eec 0ac0 2c58 28bf
00000370: fa88 fb3f 5de6 c53d 6eee 8dbe 6f1f a63e
00000380: 9692 283f a3e2 74be 0ffe 97bf 381e ba3c
00000390: 7bd3 d8bb 09f2 96bf 7663 123e 0291 97bf
000003a0: a963 ccbd 329e 3c40 b143 afbf c142 74bf
000003b0: 84aa d73f 7800 a6be 4ac7 0f40 dedd 96bf
000003c0: 61c4 a73f 1c66 2cbf 10a8 45bf 70f7 05bf
000003d0: 8538 dbbe c4d7 b43e 8d8f 10bf ac5d 96bf
000003e0: d451 5fbf 6a06 a93e ac22 edbf cd7e 0d3f
000003f0: 1689 ab3f 3e65 d8bf 95e2 f13e 76a2 8bbd

lstm.bias_ih_l0 f4 [128]
1.2893878 0.8442242 0.44118038 0.4128897 0.5474692 0.18057106 0.5169183 -0.02664219
0.5370967 0.9366589 0.38933724 0.013362104 -0.22417091 -0.17254426 0.43756226 1.299587
-0.18890372 0.7372959 0.3375142 0.41112936 0.22048706 0.7539238 0.19229235 0.15893371
-0.3382148 -0.035200857 -0.5484739 -0.25409797 -0.42919654 0.5968844 0.19170876 -0.20048071
-0.3384562 -0.6131285 -0.06618248 -0.5923436 -0.7792753 0.6511382 0.4218667 -0.02836119
0.0057699117 0.20961325 0.3792575 -0.044377975 0.6999948 -0.43991968 0.018903993 -0.24330881
-0.37968585 -0.4526196 -0.8645284 0.56309205 -0.48156378 -0.1275268 -0.50059974 0.5929923
-0.43198258 0.39967358 0.24208649 -0.45920506 -0.94974506 0.84294283 -0.41646603 -0.26428068
-0.272542 0.026233284 -0.15517692 0.6271555 -0.8028479 0.648556 -0.3595217 -0.32784855
0.1101356 1.2751268 -0.28299794 -0.09672069 0.69576514 0.07835934 0.7213368 -1.0838917
0.908474 -0.62633204 -0.8056122 -0.068060644 -0.5047711 -0.34070128 0.26115745 -0.75093913
-0.6156976 -0.15993747 0.0333384 0.017918352 0.5752074 -1.0160574 -0.5002178 -0.55839705
0.9332529 1.0267894 0.3563149 0.010433627 0.6840968 -0.10675452 0.6990511 0.32017213
-0.04987096 0.5411061 0.45736712 0.7343519 0.65275174 0.37266627 1.2828091 0.34390134
-0.16504286 0.4409733 0.407368 0.21461307 0.6675246 0.6868829 0.059697215 0.29897153
-0.32941428 -0.32583916 -0.1508305 0.31003323 -0.20780526 0.36020234 0.13909337 -0.030216685
00000000: a90a a53f 141f 583f 65e2 e13e 4766 d33e
00000010: f126 0c3f 9fe7 383e c254 043f b940 dabc
00000020: 2b7f 093f e1c8 6f3f 3657 c73e baec 5a3c
00000030: 0f8d 65be 71af 30be 2908 e03e de58 a63f
00000040: fa6f 41be 6dbf 3c3f a9ce ac3e 8c7f d23e
00000050: 5cc7 613e 2601 413f 49e8 443e 85bf 223e
00000060: 7e2a adbe c62e 10bd c968 0cbf 2119 82be
00000070: a6bf dbbe 6bcd 183f 4d4f 443e d14a 4dbe
00000080: 224a adbe fdf5 1cbf ae8a 87bd d5a3 17bf
00000090: 967e 47bf feb0 263f e9fe d73e ba55 e8bc
000000a0: 8711 bd3b dba4 563e 0a2e c23e aec5 35bd
000000b0: dc32 333f 273d e1be 8cdc 9a3c f225 79be
000000c0: 2f66 c2be c2bd e7be bc51 5dbf cd26 103f
000000d0: 878f f6be 6396 02be 4e27 00bf 58ce 173f
000000e0: d22c ddbe 04a2 cc3e 85e5 773e ed1c ebbe
000000f0: 7e22 73bf 1acb 573f 093b d5be cc4f 87be
00000100: a08a 8bbe 2fe7 d63c b3e6 1ebe 438d 203f
00000110: 7187 4dbf c407 263f 3a13 b8be c4db a7be
00000120: c68e e13d 5b37 a33f 1be5 90be 7f15 c6bd
00000130: aa1d 323f dd7a a03d 87a9 383f f7bc 8abf
00000140: c191 683f 4c57 20bf 9a3c 4ebf 6163 8bbd
00000150: ae38 01bf 6670 aebe 6eb6 853e 8c3d 40bf
00000160: 5c9e 1dbf a6c6 23be d98d 083d 82c9 923c
00000170: cb40 133f 2b0e 82bf 460e 00bf 1cf3 0ebf
00000180: a9e9 6e3f d66d 833f e86e b63e cef1 2a3c
00000190: f820 2f3f 1da2 dabd 03f5 323f 9aed a33e
000001a0: 7e45 4cbd ee85 0a3f 062c ea3e 7cfe 3b3f
000001b0: bd1a 273f 1dce be3e 1733 a43f d613 b03e
000001c0: ff00 29be 41c7 e13e 8a92 d03e 87c3 5b3e
000001d0: e4e2 2a3f 8fd7 2f3f 1185 743d cc12 993e
000001e0: fda8 a8be 64d4 a6be 5073 1abe adbc 9e3e
000001f0: e7ca 54be 716c b83e 7e6e 0e3e fb88 f7bc

lstm.bias_hh_l0 f4 [128]
1.1070014 1.0608896 0.5728731 0.28121412 0.39554015 0.272389 0.30777568 -0.1682008
0.7314764 0.7243578 0.18603966 0.005187923 -0.2950082 0.025943886 0.4262634 1.0077307
-0.056056377 0.9481998 0.2867494 0.67554784 0.13180898 0.9453706 0.20235157 0.344931
-0.03947367 0.034171674 -0.8112164 -0.45024478 -0.48491672 0.45898917 0.41297343 0.03410779
-0.4326184 -0.76552784 -0.05421774 -0.59331197 -0.69147956 0.76946986 0.24191001 -0.07914058
0.008445723 0.46998993 0.3773897 -0.05384609 0.50967205 -0.23388967 0.21326183 -0.49586278
-0.38167703 -0.16840933 -0.7396698 0.42606136 -0.3163275 -0.1513678 -0.4838751 0.41910592
-0.35255644 0.1597339 0.51276976 -0.54357946 -1.1634244 0.86229295 -0.39931145 -0.2775193
-0.2794307 0.11444412 -0.10072264 0.3491903 -0.5576751 0.52030635 -0.40351653 -0.291249
-0.021786837 1.2906685 -0.4497 -0.302263 0.79234433 0.03532817 0.96700144 -0.95802575
0.82265466 -0.4696875 -0.7948034 0.016783671 -0.46276724 -0.085485674 -0.06315852 -0.80469704
-0.3966596 -0.26054695 0.25272316 -0.08170417 0.53519017 -0.9012055 -0.26953042 -0.5176056
1.1342415 1.0380886 0.2522947 0.049528856 0.89724076 0.11138376 0.4203736 0.17896071
0.078815855 0.46549225 0.40893972 0.72967327 0.8309151 0.2848636 1.2507917 0.38757566
-0.23026279 0.58077306 0.45758384 0.10750172 0.8925617 0.6737959 -0.019224877 0.08851228
-0.2637173 -0.025743723 0.020296922 0.17120291 -0.05204227 0.24345915 0.13325532 -0.14778045
00000000: 39b2 8d3f 3bcb 873f d0a7 123f 4cfb 8f3e
00000010: 3d84 ca3e 9276 8b3e c694 9d3e d53c 2cbe
00000020: 0a42 3b3f 836f 393f 2e81 3e3e 74ff a93b
00000030: 510b 97be 4688 d43c 323f da3e 52fd 803f
00000040: 5f9b 65bd 39bd 723f d1d0 923e b4f0 2c3f
00000050: eff8 063e cf03 723f 4035 4f3e cc9a b03e
00000060: 25af 21bd 99f7 0b3d e1ab 4fbf 7c86 e6be
00000070: 0147 f8be a100 eb3e 4171 d33e 9cb4 0b3d
00000080: 2980 ddbe a2f9 43bf 6c13 5ebd 4be3 17bf
00000090: ce04 31bf fafb 443f 42b7 773e 7514 a2bd
000000a0: ee5f 0a3c 85a2 f03e 3939 c13e b88d 5cbd
000000b0: de79 023f c680 6fbe 4f61 5a3e bae1 fdbe
000000c0: 2c6b c3be 7f73 2cbe 005b 3dbf b724 da3e
000000d0: aef5 a1be 2900 1bbe 7abe f7be 0d95 d63e
000000e0: 4782 b4be 4991 233e e144 033f 0628 0bbf
000000f0: 17eb 94bf 3bbf 5c3f 8d72 ccbe 0217 8ebe
00000100: 8a11 8fbe ae61 ea3d ac47 cebd 12c9 b23e
00000110: ccc3 0ebf cc32 053f b899 cebe 971e 95be
00000120: 4f7a b2bc a034 a53f 143f e6be 37c2 9abe
00000130: 14d7 4a3f 45b4 103d 688d 773f 2d41 75bf
00000140: 7f99 523f e17a f0be 3c78 4bbf e97d 893c
00000150: d4ef ecbe 1d13 afbd 4159 81bd a000 4ebf
00000160: f816 cbbe 6966 85be ee64 813e 8454 a7bd
00000170: 3902 093f 67b5 66bf e4ff 89be cd81 04bf
00000180: d32e 913f 16e0 843f c52c 813e c5de 4a3d
00000190: 92b1 653f 2b1d e43d 353b d73e 7a41 373e
000001a0: 356a a13d 0055 ee3e 8c60 d13e decb 3a3f
000001b0: dab6 543f a4d9 913e f119 a03f 5170 c63e
000001c0: 02ca 6bbe 8bad 143f 6e48 ea3e dd29 dc3d
000001d0: ec7e 643f e37d 2c3f 7d7d 9dbc ed45 b53d
000001e0: f405 87be 80e4 d2bc bb45 a63c d14f 2f3e
000001f0: 462a 55bd 5b4d 793e 1574 083e c253 17be

fc.weight f4 [1, 32]
-0.2875292 -1.1811725 -0.86783 0.909661 -0.0542585 0.49125892 -0.5487553 -0.25868392
0.6668229 0.5849754 -0.1864593 0.675216 0.51151997 -0.6773541 0.6556903 0.52739465
0.34814736 0.7545959 1.0106126 -0.43605766 0.57664496 -0.03954548 0.5064587 -0.47153994
-0.65059036 1.0502514 -0.61669374 0.9615363 0.59530705 -0.6869119 -0.49687028 0.9678796
00000000: 0737 93be a930 97bf 1b2a 5ebf 8bdf 683f
00000010: 293e 5ebd 4a86 fb3e 3a7b 0cbf 3872 84be
00000020: e8b4 2a3f f3c0 153f 30ef 3ebe f5da 2c3f
00000030: f9f2 023f 1467 2dbf 52db 273f 5603 073f
00000040: 5f40 b23e 322d 413f c15b 813f f342 dfbe
00000050: 019f 133f 71fa 21bd 47a7 013f af6d f1be
00000060: 178d 26bf a36e 863f a4df 1dbf 3e27 763f
00000070: 0b66 183f 75d9 2fbf c865 febe f5c6 773f
