round_1/algos/Laksh/lstm_model_200_epochs.pth (torch, 20137 bytes, 5 tensors)

lstm.weight_ih_l0 f4 [128, 1]
0	0x3e60e5b0	0.21962619
1	0xbe9d2da5	-0.30698887
2	0xbe3cb033	-0.1842659
3	0xbf448eb4	-0.7678025
4	0xbef96949	-0.4871314
5	0xbe42a0a3	-0.1900659
6	0x3e12e2e9	0.14344372
7	0x3d77ddd6	0.060514294
8	0xbe936050	-0.28784418
9	0x3f3731b7	0.71560234
10	0xbf005551	-0.5013018
11	0xbfe5c4d7	-1.7950696
12	0x3e90e8cd	0.28302613
13	0x3f3386d5	0.7012761
14	0xbff6b71e	-1.9274633
15	0x3e25c279	0.16187467
16	0xbe2eb21d	-0.17060132
17	0x3e7221ab	0.23645656
18	0x3d7bff98	0.06152305
19	0xbf9a37a9	-1.2048236
20	0x3e554195	0.20825799
21	0x3e8ecfbd	0.27892867
22	0x3f5df0cd	0.8669556
23	0xbdac953f	-0.08426904
24	0xbf884844	-1.0647054
25	0x3f0736b9	0.52817875
26	0xbf694ecd	-0.91135865
27	0xbee22e78	-0.44176078
28	0xbe9f0db6	-0.31065148
29	0xbdbef17f	-0.093234055
30	0x3f1e0dbd	0.6173971
31	0x3eb92a2d	0.3616499
32	0x3f77c3e0	0.96783257
33	0x3fa40ba0	1.2816048
34	0xbdd3266c	-0.10310063
35	0x3fad2378	1.3526449
36	0xbeaf9ed8	-0.34300876
37	0xbe5b30d0	-0.21405339
38	0x3e82be1d	0.2553567
39	0x3e39c86d	0.18142863
40	0x3e420333	0.18946533
41	0xbf4bd92f	-0.7962827
42	0xbeb6c87e	-0.35699838
43	0xbdcbb715	-0.099470295
44	0xbf285085	-0.65747863
45	0x3d9cd5cc	0.07657966
46	0xbef23b34	-0.47310793
47	0xbdad2cf2	-0.08455838
48	0x3e3fd021	0.18731739
49	0x3eb1dd2d	0.34739056
50	0xbf144fd7	-0.57934326
51	0xbf400fa7	-0.75023884
52	0xbf8da565	-1.10661
53	0xbf144780	-0.579216
54	0xbe9545f3	-0.2915493
55	0x3df6a68d	0.12043486
56	0xbf556284	-0.8335345
57	0xbee991ab	-0.45618948
58	0x3e85095b	0.259837
59	0xbe2ecaad	-0.17069502
60	0xbd09986e	-0.033592634
61	0xbf1f2e34	-0.62179875
62	0xbefe78e6	-0.49701613
63	0xbf99459f	-1.1974372
64	0xbf31def8	-0.6948085
65	0x3f5bbd7a	0.85835993
66	0xc00968d3	-2.147023
67	0xbf93550f	-1.1510333
68	0xbf9709c3	-1.1799854
69	0x3f82d59a	1.0221436
70	0x3faa7fb8	1.3320227
71	0xc0256f15	-2.584905
72	0xbf3b33e4	-0.73126054
73	0xbf8d213f	-1.1025771
74	0xbf8c7a48	-1.0974817
75	0x3f14dc23	0.581484
76	0xbf92b884	-1.146256
77	0xbf9d4442	-1.2286456
78	0xc01fbe6e	-2.495998
79	0xbf7bfa04	-0.9842837
80	0x3fa386e3	1.2775539
81	0x3e4ff3c1	0.20307828
82	0xbef0596f	-0.46943232
83	0xbf8f4c45	-1.1195151
84	0x3ef9d9e1	0.4879904
85	0x3f53b515	0.82698184
86	0x3eb5fe7c	0.3554572
87	0x3f83dafa	1.0301201
88	0xbfcd54e7	-1.6041535
89	0xbff92795	-1.9465204
90	0xc00705e2	-2.109734
91	0xbf8d5e1e	-1.1044347
92	0x3fb8e6a2	1.4445384
93	0x3fbf5f43	1.4950947
94	0xbf1b035b	-0.60551995
95	0xbf5676bd	-0.8377493
96	0x3edd0191	0.43165258
97	0x3fa0fb11	1.2576619
98	0x3f15e617	0.58554214
99	0xbfa2f87c	-1.2732081
100	0x3ea71347	0.32631895
101	0xbfeb69d0	-1.8391666
102	0x3f325436	0.69659746
103	0xbf894827	-1.0725144
104	0xbf2f852f	-0.685626
105	0x3f9bae36	1.216254
106	0xbdc77b88	-0.097403586
107	0x3e2a4731	0.1662872
108	0x3ddd4c42	0.10805561
109	0xbefab4da	-0.48966104
110	0xbfe80f46	-1.8129661
111	0x4022c84d	2.5434754
112	0xbfbe8b7c	-1.4886317
113	0x3f826f80	1.0190277
114	0x3f142bbf	0.5787925
115	0xbeb0d6a3	-0.34538755
116	0xbd66809b	-0.05627499
117	0x3ef6e1ad	0.48219052
118	0x3f81c5cf	1.0138491
119	0xbee043ad	-0.43801633
120	0x3f174da6	0.5910286
121	0xbfa0bd84	-1.2557836
122	0x3f5a7693	0.8533718
123	0x3fce7b2d	1.613134
124	0x3e182341	0.14857198
125	0x3e2fdf9a	0.17175141
126	0x3f2c14a2	0.67218983
127	0x3e84acf7	0.25913212

lstm.weight_hh_l0 f4 [128, 32]
0	0xbdfccd9b	-0.12343904
1	0x3d08bb90	0.033382
2	0x3f8e1da1	1.1102792
3	0xbe937565	-0.28800502
4	0x3f0fa1af	0.56106085
5	0xbdbab7d8	-0.09117097
6	0x3e91a00a	0.28442413
7	0x3f90ce1b	1.1312898
8	0x3f9bdc8d	1.2176682
9	0x3fc12079	1.5088035
10	0x3ea9430a	0.3305896
11	0xbf6390ff	-0.8889312
12	0x3f6d330a	0.92656004
13	0xbdd90666	-0.105969235
14	0x3ff24604	1.8927617
15	0x3f812a1e	1.0090978
16	0xbf07af75	-0.530021
17	0x3f22aa7b	0.6354138
18	0xbf7c9da1	-0.9867802
19	0xbe144c84	-0.14482313
20	0x3fca80bd	1.5820538
21	0x3fa92498	1.3214293
22	0xbf331ca9	-0.69965607
23	0xbeb9d1e9	-0.3629296
24	0x3f2e658a	0.68123686
25	0xbdc5811a	-0.09643765
26	0x3f015e84	0.50534844
27	0xbfb10635	-1.3830019
28	0xbf2af241	-0.667759
29	0xbf305154	-0.68874097
30	0x3f485a1d	0.782625
31	0x3e0227d8	0.12710512
32	0xbec2940c	-0.38003576
33	0x3f41eb34	0.75749516
34	0x3fe55ad0	1.7918339
35	0xbe97e8a2	-0.29669672
36	0x3e8286af	0.2549338
37	0xbeacb5f1	-0.3373256
38	0x3e3077ef	0.17233251
39	0x3fd15333	1.6353515
40	0x3f0a1662	0.53940403
41	0xbeffb830	-0.4994521
42	0xbf7bc706	-0.9835056
43	0x3e655983	0.22397427
44	0xbefdf245	-0.495989
45	0xbf09a04d	-0.53760225
46	0xbf166944	-0.5875437
47	0xbfacee22	-1.3510172
48	0xbec9a049	-0.393801
49	0x3f38b446	0.72150075
50	0xbfaaee19	-1.3353912
51	0x3f0b1c3a	0.54339945
52	0x3f10fb8f	0.5663385
53	0xbeee2ebc	-0.4652003
54	0x3fa3f3a5	1.280873
55	0x3eb91184	0.36146176
56	0x3fe776d2	1.8083136
57	0x3fd0c49e	1.6310003
58	0xbf7c4d48	-0.9855542
59	0xbe16907d	-0.14703555
60	0x3f54db3c	0.83147025
61	0xbe6a56da	-0.22884694
62	0xbef7d1d7	-0.48402283
63	0xbeb82c1a	-0.35971147
64	0xbe993508	-0.29923272
65	0x3ea6bdeb	0.3256677
66	0x3e0807de	0.13284251
67	0xbe8e9265	-0.27846065
68	0x3eaa2a1e	0.33235258
69	0xbf4bef35	-0.79661876
70	0x3f13198d	0.5746086
71	0xbd830ef9	-0.0639934
72	0xbd8ec32e	-0.06970821
73	0x3f1035c7	0.5633206
74	0x3eac5a93	0.33662853
75	0xbfa0eee8	-1.2572908
76	0x3e2a230c	0.16614932
77	0xbc581854	-0.013189394
78	0x3fbe6d5e	1.4877126
79	0x3e35dc96	0.17759928
80	0xbf988388	-1.191514
81	0x3dab6ec4	0.08370736
82	0x3e397c97	0.18113934
83	0x3e68b8d5	0.22726758
84	0x3f4ceb7e	0.8004683
85	0x3f81939e	1.0123174
86	0x3e8c1807	0.2736208
87	0x3f5f7b65	0.8729766
88	0x3fafd69c	1.3737369
89	0xbf628bc3	-0.8849451
90	0xbdfce40e	-0.123481855
91	0xbe723b16	-0.23655352
92	0x3f47b252	0.7800647
93	0xbe127e40	-0.14305973
94	0xbedf16c1	-0.43572047
95	0xbf6d4cce	-0.9269532
96	0x3f339eb4	0.70164037
97	0xbf03fd06	-0.5155796
98	0x3d074183	0.03302146
99	0xbed93774	-0.4242512
100	0xbf43c545	-0.76472884
101	0x3ede66d8	0.4343784
102	0x3f4c9add	0.799238
103	0xbf9956a1	-1.1979562
104	0x3f839934	1.0281129
105	0xbe2f7ebe	-0.17138192
106	0xbfc39b7b	-1.5281824
107	0x3fd8e864	1.694592
108	0x3e09c37a	0.13453475
109	0xbf5c9f5d	-0.8618067
110	0xbf950270	-1.1641369
111	0xbffa83e7	-1.9571503
112	0xbe2deefa	-0.16985694
113	0xbf2db740	-0.6785774
114	0xbe457193	-0.19281606
115	0xbff5406f	-1.9160289
116	0x3f56f710	0.8397074
117	0x3e57cb0c	0.2107355
118	0x3e6267e5	0.22109945
119	0x3edef57c	0.43546665
120	0x3f0ffef7	0.5624842
121	0x3f023c98	0.5087371
122	0xbf8c5ad7	-1.0965222
123	0xbef0cc40	-0.4703083
124	0x3fd29349	1.6451198
125	0x3f05f9de	0.5233439
126	0xbeab8955	-0.33503214
127	0xbf045b87	-0.5170216
128	0xbd8ab46a	-0.067726925
129	0xbd20462b	-0.039129417
130	0x3c010db8	0.007876806
131	0x3fa702de	1.304775
132	0xbf051180	-0.5197983
133	0xbe4ccb71	-0.19999482
134	0x3e9bc416	0.3042304
135	0x3cf70dd9	0.03015797
136	0x3e8489ba	0.25886327
137	0x3e926be0	0.28597927
138	0xbfb7871d	-1.4338108
139	0x3f82cabb	1.0218118
140	0xbd38da40	-0.045130014
141	0xbfe4e627	-1.7882737
142	0x3e896d9d	0.2684144
143	0xbd4e3546	-0.050343774
144	0xbe917dca	-0.28416282
145	0x3f697e1d	0.9120806
146	0xc0009414	-2.009038
147	0x3ecfa8a4	0.4055835
148	0xbe882450	-0.26590204
149	0x3eb6573e	0.35613436
150	0xbea46f22	-0.32116038
151	0x3f168307	0.5879368
152	0xbd2b1f55	-0.041777927
153	0xbdd381a9	-0.10327465
154	0x3f39546f	0.7239446
155	0xbfaf2d15	-1.3685633
156	0xbe7022fe	-0.23450848
157	0x3f5fbd6d	0.87398416
158	0xbea6e5b3	-0.32597122
159	0x3e399eec	0.1812703
160	0xbe9e88b1	-0.30963662
161	0xbf6dffa4	-0.929682
162	0xbe8fa9bf	-0.28059193
163	0x3b0d9fe0	0.0021610186
164	0x3e4e9e34	0.20177537
165	0xbe086ac1	-0.13321973
166	0x3e186131	0.14880826
167	0xbe7c4d1c	-0.2463879
168	0x3eba59e6	0.36396712
169	0x3f56ebaf	0.83953375
170	0xbeb281a9	-0.34864548
171	0xbd881633	-0.06644859
172	0x3ee44cf8	0.44589972
173	0xbf809696	-1.0045955
174	0xbf67c416	-0.9053358
175	0xbe9c603f	-0.3054218
176	0x3fa0c222	1.2559245
177	0x3e54b904	0.20773703
178	0xbf96218e	-1.172899
179	0xbdc5337e	-0.09628962
180	0x3f844c2d	1.0335747
181	0x3f1a226f	0.6020879
182	0x3eafa719	0.34307173
183	0x3ea6a302	0.3254624
184	0xbe8945d3	-0.26811084
185	0xc0038546	-2.0550094
186	0x3dbb45fc	0.09144208
187	0x3f0a14ef	0.5393819
188	0x3d9f8f71	0.07791031
189	0xbf5b3c4b	-0.85638875
190	0xbf028aae	-0.5099286
191	0xbfcdd9cf	-1.6082095
192	0xbf4ff808	-0.8123784
193	0xbe2496ed	-0.16073199
194	0x3e290e91	0.16509463
195	0xbd7da385	-0.061923523
196	0x3f10f14c	0.5661819
197	0xbf96bebf	-1.1776961
198	0x3ef6d10b	0.48206362
199	0x3e22a2bb	0.15882389
200	0x3f8a9e88	1.082963
201	0x3f1bd593	0.60872763
202	0xbf45d5a3	-0.7727911
203	0xbec3f398	-0.38271785
204	0x3faaf766	1.335675
205	0xbf3a949d	-0.72883016
206	0xbf596bd2	-0.84930146
207	0x3d1ee5bc	0.03879331
208	0xbf4727c3	-0.77795047
209	0x3f896687	1.0734414
210	0xbe72c845	-0.2370921
211	0xbea6943d	-0.32534972
212	0xbf1d658c	-0.61483073
213	0x3f03e44d	0.51520234
214	0xbec57a22	-0.38569742
215	0xbe1579dc	-0.14597267
216	0xbf611dfa	-0.87936366
217	0x3f59b702	0.8504487
218	0xbf78784d	-0.97058564
219	0xbe13f16e	-0.14447567
220	0x3e85efa6	0.261594
221	0x3e69bcca	0.22825924
222	0x3e9b1070	0.30285978
223	0x3f214465	0.62994987
224	0xbf83651a	-1.0265229
225	0x3ef6aa2a	0.481767
226	0x3f127f1f	0.5722522
227	0xbfb3314a	-1.3999417
228	0x3f9f1d10	1.2430744
229	0xbf23e02e	-0.64013946
230	0xbe343769	-0.17599262
231	0xbf6d2e53	-0.9264881
232	0x3daeb830	0.08531225
233	0xbea163eb	-0.31521544
234	0x3fc7ab55	1.5599161
235	0xbf982399	-1.1885864
236	0xbf0c41e0	-0.5478802
237	0x3ee8e524	0.4548732
238	0x3ed5e8ff	0.41779324
239	0xbe6b1793	-0.22958212
240	0x3f565189	0.8371816
241	0x3f36ac85	0.71356994
242	0x3cb0a78e	0.021564271
243	0x3f8928ac	1.0715537
244	0xbf774fff	-0.9660644
245	0x3eb92476	0.3616063
246	0x3fdb7919	1.7146331
247	0xbe0a23c4	-0.13490206
248	0x3fa8b193	1.3179191
249	0xbf10cb79	-0.56560475
250	0xbdd86b11	-0.10567296
251	0x3f943491	1.1578542
252	0xbe8e2ba7	-0.2776768
253	0xbeb3e7a3	-0.35137662
254	0x3efcb8c8	0.49359727
255	0x3d1118a7	0.0354239

lstm.bias_ih_l0 f4 [128]
0	0x3f4d88fa	0.80287135
1	0x3f1aadb3	0.60421294
2	0x3db0b84d	0.086289026
3	0xbe4fef72	-0.20306185
4	0x3d5f6dae	0.054547958
5	0x3e2d9110	0.16949868
6	0xbde8ee91	-0.11373628
7	0x3e23f235	0.16010363
8	0x3f112301	0.56694037
9	0xbe335b3e	-0.17515275
10	0x3f0f6808	0.56018114
11	0xbd9cca8f	-0.076558225
12	0x3ee168c6	0.44025248
13	0xbc9f5d32	-0.019453619
14	0xbeebe00e	-0.46069378
15	0x3e4a6e5e	0.19768664
16	0x3ec9491d	0.39313594
17	0x3ea04ace	0.3130707
18	0x3f02be1c	0.51071334
19	0x3d594f0f	0.05305391
20	0x3ead00a1	0.33789542
21	0xbe8e05b2	-0.2773872
22	0x3ed1c270	0.40968657
23	0x3e98088d	0.29694024
24	0x3f322196	0.695825
25	0x3e4b533e	0.19855973
26	0xbdab52e4	-0.083654195
27	0x3ef5ea11	0.4803014
28	0x3ede822b	0.43458685
29	0x3e85970d	0.26091805
30	0x3e5a9e13	0.21349363
31	0x3e169f9a	0.1470932
32	0xbedbb368	-0.42910314
33	0xbef1d787	-0.47234747
34	0xbd095eaf	-0.033537563
35	0x3dc03a70	0.09386146
36	0xbecf2f8a	-0.40465957
37	0x3ebc823f	0.3681812
38	0x3e129e89	0.14318289
39	0x3e9c7974	0.3056141
40	0x3c46e5d8	0.01213976
41	0xbde8b40d	-0.11362467
42	0xbe75b88c	-0.2399618
43	0x3e182bd8	0.14860475
44	0xbe14322f	-0.14472269
45	0x3eb060f1	0.3444896
46	0xbdd92757	-0.106032066
47	0x3b436569	0.0029815084
48	0xbe5681fc	-0.20948023
49	0x3e1d65f3	0.15370922
50	0x3db79532	0.089640036
51	0x3e33d738	0.17562568
52	0x3df10472	0.11768426
53	0x3e6303f9	0.22169484
54	0x3e43b3a5	0.19111498
55	0xbe25eebc	-0.16204351
56	0xbdeca57c	-0.11555001
57	0x3ec0698e	0.37580532
58	0x3e94a98c	0.29035604
59	0xbf454207	-0.77053875
60	0xbe427aa6	-0.18992099
61	0xbe077301	-0.13227464
62	0x3dda36ab	0.10654958
63	0x3efd33fc	0.49453723
64	0xbf38e545	-0.7222484
65	0x3dc4140a	0.09574135
66	0x3e938e7d	0.28819647
67	0xbf0a7184	-0.5407946
68	0x3ea1159f	0.31461808
69	0xbe3b405a	-0.18286267
70	0xbce94318	-0.028474376
71	0x3ed03d5e	0.4067182
72	0xbdddd51c	-0.10831663
73	0x3eccb3a7	0.39980814
74	0xba0c5b4d	-0.0005354181
75	0x3ddcda87	0.10783868
76	0x3f0609bb	0.523586
77	0x3f02ab7c	0.51042914
78	0xbeee613c	-0.4655856
79	0x3df11c30	0.117729545
80	0xbe02d9a5	-0.12778337
81	0x3e12b819	0.1432804
82	0xbeca6b16	-0.39534825
83	0xbf2dd3a4	-0.6790106
84	0x3ea28e3b	0.31749138
85	0xbf1c9219	-0.6116043
86	0x3dcba0c6	0.099427745
87	0x3e522c18	0.20524633
88	0xbde9847d	-0.11402223
89	0x3d865058	0.06558293
90	0xbe3c3c55	-0.1838239
91	0x3e978a4d	0.29597703
92	0x3ed9a4d5	0.4250857
93	0x3e6e64d8	0.23280656
94	0xbdbefafc	-0.09325215
95	0x3ef08e2e	0.46983474
96	0x3f896d3e	1.0736463
97	0x3f1ac8b8	0.6046252
98	0x3ec9b627	0.39396784
99	0x3e3c2c47	0.18376265
100	0x3f4ed1fd	0.80789167
101	0xbcfeaa71	-0.031087132
102	0x3e709180	0.23493004
103	0x3f380049	0.71875435
104	0x3d1abc8f	0.03777748
105	0x3e89c16b	0.2690538
106	0x3f1da90d	0.61586076
107	0x3f24e28c	0.64408183
108	0x3eab6b7e	0.33480448
109	0x3f63457e	0.8877791
110	0x3ed143c4	0.40872014
111	0xbe492c4c	-0.19645804
112	0x3f140fc7	0.57836574
113	0x3f24979a	0.64293826
114	0x3ea608fc	0.3242873
115	0x3f15bc1a	0.58490145
116	0x3ea15e97	0.3151748
117	0x3f3e1e88	0.74265337
118	0xbcf7f833	-0.030269718
119	0x3f5585dc	0.8340738
120	0x3ebd0ca4	0.36923707
121	0x3ef50c29	0.4786084
122	0x3da8a4d3	0.08234563
123	0x3f997c42	1.1991045
124	0x3f067e29	0.52536255
125	0x3d163dbd	0.036679972
126	0x3ebf5b63	0.3737441
127	0x3dbc845b	0.09204932

lstm.bias_hh_l0 f4 [128]
0	0x3f339f7b	0.7016522
1	0x3f130b87	0.57439464
2	0x3dde3f97	0.108519726
3	0xbe38c4f0	-0.18043876
4	0x3e222c35	0.15837176
5	0x3ecdeca5	0.40219608
6	0xbdf68b1f	-0.12038254
7	0x3db9ed7a	0.09078498
8	0x3ecf0861	0.4043608
9	0xbe15b8f3	-0.14621334
10	0x3e7d4ab8	0.24735534
11	0xbda8e20d	-0.08246241
12	0x3eb1d8d5	0.34735742
13	0x3e7b0e09	0.24517073
14	0xbeb09676	-0.34489793
15	0x3e93157d	0.28727332
16	0x3e98b29e	0.29823774
17	0x3eacae9c	0.33726966
18	0x3f03cbae	0.51482666
19	0xbdbc3b34	-0.091909796
20	0x3ee202c2	0.4414273
21	0xbe194d2d	-0.14970846
22	0x3e691a45	0.22763927
23	0x3eb83ae3	0.35982427
24	0x3f2b6c3e	0.6696204
25	0x3eb04bfe	0.34432977
26	0xbe19b768	-0.1501137
27	0x3f24105f	0.6408748
28	0x3f22ebde	0.63641155
29	0x3de6beeb	0.112668835
30	0x3effe4a4	0.49979126
31	0x3e7e47fb	0.24832146
32	0xbebfef2c	-0.3748716
33	0xbf1defef	-0.61694235
34	0x3e21c5bb	0.15798084
35	0xbdd40bc6	-0.10353808
36	0xbe400c70	-0.18754745
37	0x3e2b63e3	0.16737323
38	0x3e126fca	0.14300457
39	0x3e2c81d2	0.16846398
40	0xbdea8329	-0.11450798
41	0xbe7e0191	-0.24805285
42	0xbe846007	-0.25854513
43	0xbc999efd	-0.01875257
44	0x3dde0eea	0.108426884
45	0x3e47cb91	0.19511248
46	0xbda87628	-0.082256615
47	0x3c41aea5	0.011821424
48	0xbb8ceb5b	-0.0043005175
49	0x3e0dfdb4	0.13866311
50	0x3e1f53d5	0.15559323
51	0x3e3c2ff0	0.18377662
52	0x3dc831aa	0.09775098
53	0x3d8e1c95	0.06939045
54	0x3e66b6c3	0.22530656
55	0xbd552429	-0.052036438
56	0xbe8f848b	-0.2803081
57	0x3e2dad29	0.16960587
58	0xbaa880ca	-0.0012855765
59	0xbf1ab43d	-0.6043127
60	0x3c443da4	0.011977587
61	0x3c1ddb88	0.00963486
62	0xbe1601e2	-0.14649156
63	0x3f013baf	0.50481695
64	0xbf12c5cf	-0.5733308
65	0x3e158049	0.14599718
66	0x3e9bbd45	0.3041784
67	0xbf437c9d	-0.7636202
68	0x3d2fbef4	0.042906716
69	0xbe8ce985	-0.2752191
70	0xbc843f7e	-0.016143557
71	0x3effcb6f	0.49959895
72	0xbeaddd0a	-0.33957702
73	0x3ef6516d	0.48108998
74	0x3d13aba6	0.03605237
75	0xbe38dc83	-0.18052869
76	0x3ee64550	0.44974756
77	0x3e5f5275	0.21808799
78	0xbef113ec	-0.47085512
79	0xbdee5512	-0.116373196
80	0xbe1076b3	-0.1410778
81	0x3df87514	0.12131706
82	0xbe877cd5	-0.26462427
83	0xbf686c3a	-0.9079014
84	0x3e6f74ef	0.2338445
85	0xbf289e8b	-0.6586692
86	0x3d3cdbb9	0.04610798
87	0x3e2b7458	0.167436
88	0xbdf37f72	-0.11889543
89	0x3e7c1f2f	0.2462127
90	0xbdf73aa9	-0.120717354
91	0x3eeb97a2	0.46014124
92	0x3ea0d2fa	0.31410962
93	0x3e161463	0.14656214
94	0x3ca17189	0.019707458
95	0x3ed16783	0.40899286
96	0x3f4f770b	0.8104102
97	0x3f440706	0.76573217
98	0x3ec90804	0.39263928
99	0x3e4a22d7	0.19739853
100	0x3f184b7c	0.5949018
101	0x3e3aa6fe	0.18227765
102	0x3e91e261	0.28493026
103	0x3eeecc2e	0.46640152
104	0x3d946e0a	0.07247551
105	0xbd28b369	-0.041186724
106	0x3f1724f5	0.59040767
107	0x3f69cd38	0.91328764
108	0x3f12b4bd	0.57307035
109	0x3f68afff	0.9089355
110	0x3e1726c3	0.1476088
111	0xbeae1f3e	-0.3400821
112	0x3f2462f4	0.6421349
113	0x3f06fa1e	0.527254
114	0x3e45b18e	0.19306013
115	0x3f0ec669	0.557715
116	0x3e82ebca	0.25570518
117	0x3f438778	0.76378584
118	0xbcd4ece5	-0.025991866
119	0x3f0b9b55	0.5453389
120	0x3e71734a	0.23579136
121	0x3ed22fdd	0.41052142
122	0x3e9fd398	0.3121612
123	0x3f7a29cb	0.9772002
124	0x3eb6d295	0.35707536
125	0x3e72a71f	0.23696564
126	0x3f151c55	0.58246356
127	0x3df05577	0.11735051

fc.weight f4 [1, 32]
0	0xbeee042d	-0.4648756
1	0x3df364c9	0.118844576
2	0xbce91856	-0.028453987
3	0x3e913e49	0.28367832
4	0xbf1a5db2	-0.6029922
5	0xbe9c8c10	-0.3057561
6	0x3e8b46e3	0.2720252
7	0x3f467c5e	0.7753352
8	0x3f14a49c	0.58063674
9	0x3ed5324f	0.41639945
10	0xbf50b6be	-0.8152884
11	0xbeaa82e3	-0.33302984
12	0x3f0491cf	0.51784986
13	0x3e4a6807	0.19766246
14	0x3f629e81	0.8852311
15	0x3f06664b	0.52499837
16	0xbecd7ae8	-0.40132833
17	0x3ec2838f	0.37990996
18	0x3dcd2799	0.10017318
19	0x3f08baf0	0.53410244
20	0xbe03cde7	-0.12871514
21	0x3ddef80f	0.10887157
22	0x3ea343b3	0.31887588
23	0xbeeb810a	-0.45996886
24	0x3ed10a27	0.40828058
25	0xbcd2cbc2	-0.025731925
26	0xbf87e004	-1.0615239
27	0x3dee4ee5	0.11636142
28	0xbd2a5bfb	-0.041591626
29	0xbf283e41	-0.6571999
30	0x3f0d803b	0.5527379
31	0xbdb7ecf3	-0.08980741
